module @module {
  func.func @main(%arg0: !torch.vtensor<[2,8],f32>) -> !torch.vtensor<[2,16],f32> attributes {torch.assume_strict_symbolic_shapes} {
    %0 = torch.vtensor.literal(dense_resource<torch_tensor_8_16_torch.float32> : tensor<8x16xf32>) : !torch.vtensor<[8,16],f32>
    %1 = torch.aten.matmul %arg0, %0 : !torch.vtensor<[2,8],f32>, !torch.vtensor<[8,16],f32> -> !torch.vtensor<[2,16],f32>
    %2 = torch.vtensor.literal(dense_resource<torch_tensor_16_torch.float32> : tensor<16xf32>) : !torch.vtensor<[16],f32>
    %int1 = torch.constant.int 1
    %3 = torch.aten.add.Tensor %1, %2, %int1 : !torch.vtensor<[2,16],f32>, !torch.vtensor<[16],f32>, !torch.int -> !torch.vtensor<[2,16],f32>
    %4 = torch.aten.relu %3 : !torch.vtensor<[2,16],f32> -> !torch.vtensor<[2,16],f32>
    %5 = torch.vtensor.literal(dense_resource<torch_tensor_16_torch.float32_1> : tensor<16xf32>) : !torch.vtensor<[16],f32>
    %6 = torch.aten.mul.Tensor %4, %5 : !torch.vtensor<[2,16],f32>, !torch.vtensor<[16],f32> -> !torch.vtensor<[2,16],f32>
    %7 = torch.vtensor.literal(dense_resource<torch_tensor_16_torch.float32_2> : tensor<16xf32>) : !torch.vtensor<[16],f32>
    %int1_0 = torch.constant.int 1
    %8 = torch.aten.add.Tensor %6, %7, %int1_0 : !torch.vtensor<[2,16],f32>, !torch.vtensor<[16],f32>, !torch.int -> !torch.vtensor<[2,16],f32>
    %9 = torch.aten.sigmoid %8 : !torch.vtensor<[2,16],f32> -> !torch.vtensor<[2,16],f32>
    %10 = torch.aten.mul.Tensor %9, %8 : !torch.vtensor<[2,16],f32>, !torch.vtensor<[2,16],f32> -> !torch.vtensor<[2,16],f32>
    %11 = torch.vtensor.literal(dense_resource<torch_tensor_16_torch.float32_3> : tensor<16xf32>) : !torch.vtensor<[16],f32>
    %12 = torch.aten.mul.Tensor %4, %11 : !torch.vtensor<[2,16],f32>, !torch.vtensor<[16],f32> -> !torch.vtensor<[2,16],f32>
    %int1_1 = torch.constant.int 1
    %13 = torch.aten.add.Tensor %10, %12, %int1_1 : !torch.vtensor<[2,16],f32>, !torch.vtensor<[2,16],f32>, !torch.int -> !torch.vtensor<[2,16],f32>
    return %13 : !torch.vtensor<[2,16],f32>
  }
}

{-#
  dialect_resources: {
    builtin: {
      torch_tensor_8_16_torch.float32: "…",
      torch_tensor_16_torch.float32: "…",
      torch_tensor_16_torch.float32_1: "…",
      torch_tensor_16_torch.float32_2: "…",
      torch_tensor_16_torch.float32_3: "…"
    }
  }
#-}
