module {
  func.func @main_graph(%arg0: !torch.vtensor<[2,8],f32>) -> !torch.vtensor<[2,16],f32> attributes {torch.onnx_meta.ir_version = 10 : si64, torch.onnx_meta.opset_version = 18 : si64, torch.onnx_meta.producer_name = "pytorch", torch.onnx_meta.producer_version = "2.11.0+cpu"} {
    %0 = torch.operator "onnx.Constant"() {torch.onnx.value = dense_resource<weight> : tensor<8x16xf32>} : () -> !torch.vtensor<[8,16],f32> 
    %1 = torch.operator "onnx.Constant"() {torch.onnx.value = dense_resource<bias> : tensor<16xf32>} : () -> !torch.vtensor<[16],f32> 
    %2 = torch.operator "onnx.Constant"() {torch.onnx.value = dense_resource<scale> : tensor<16xf32>} : () -> !torch.vtensor<[16],f32> 
    %3 = torch.operator "onnx.Constant"() {torch.onnx.value = dense_resource<shift> : tensor<16xf32>} : () -> !torch.vtensor<[16],f32> 
    %4 = torch.operator "onnx.Constant"() {torch.onnx.value = dense_resource<gate> : tensor<16xf32>} : () -> !torch.vtensor<[16],f32> 
    %none = torch.constant.none
    %5 = torch.operator "onnx.MatMul"(%arg0, %0) : (!torch.vtensor<[2,8],f32>, !torch.vtensor<[8,16],f32>) -> !torch.vtensor<[2,16],f32> 
    %6 = torch.operator "onnx.Add"(%5, %1) : (!torch.vtensor<[2,16],f32>, !torch.vtensor<[16],f32>) -> !torch.vtensor<[2,16],f32> 
    %7 = torch.operator "onnx.Relu"(%6) : (!torch.vtensor<[2,16],f32>) -> !torch.vtensor<[2,16],f32> 
    %8 = torch.operator "onnx.Mul"(%7, %2) : (!torch.vtensor<[2,16],f32>, !torch.vtensor<[16],f32>) -> !torch.vtensor<[2,16],f32> 
    %9 = torch.operator "onnx.Add"(%8, %3) : (!torch.vtensor<[2,16],f32>, !torch.vtensor<[16],f32>) -> !torch.vtensor<[2,16],f32> 
    %10 = torch.operator "onnx.Sigmoid"(%9) : (!torch.vtensor<[2,16],f32>) -> !torch.vtensor<[2,16],f32> 
    %11 = torch.operator "onnx.Mul"(%10, %9) : (!torch.vtensor<[2,16],f32>, !torch.vtensor<[2,16],f32>) -> !torch.vtensor<[2,16],f32> 
    %12 = torch.operator "onnx.Mul"(%7, %4) : (!torch.vtensor<[2,16],f32>, !torch.vtensor<[16],f32>) -> !torch.vtensor<[2,16],f32> 
    %13 = torch.operator "onnx.Add"(%11, %12) : (!torch.vtensor<[2,16],f32>, !torch.vtensor<[2,16],f32>) -> !torch.vtensor<[2,16],f32> 
    return %13 : !torch.vtensor<[2,16],f32>
  }
}

{-#
  dialect_resources: {
    builtin: {
      weight: "…",
      bias: "…",
      scale: "…",
      shift: "…",
      gate: "…"
    }
  }
#-}

